ising_output/magnetization_vs_b_1000.npy (npy, 400128 bytes, 1 tensors)

array f8 [1000, 10, 5]
-0.0062 -0.0128 -0.0166 -0.018 -0.0202 0.0072 0.0022 -0.0018
-0.0024 -0.0028 0.0626 0.0568 0.0542 0.0536 0.0534 0.0094
0.0042 0.0012 0.0 -0.0008 -0.0236 -0.0334 -0.0388 -0.0396
-0.0404 -0.01 -0.0168 -0.0208 -0.0222 -0.0246 0.014 0.0076
0.003 0.0018 0.0002 0.0544 0.0448 0.0408 0.0398 0.0392
0.0064 -0.0028 -0.0072 -0.009 -0.0098 -0.022 -0.0316 -0.0398
-0.0412 -0.042 0.0282 0.008 -0.0056 -0.0096 -0.0152 0.0306
0.0148 0.0056 0.004 0.0026 0.1106 0.096 0.0854 0.0838
0.083 0.0426 0.0318 0.0222 0.0182 0.0158 -0.0128 -0.0434
-0.0556 -0.0586 -0.0616 0.0238 0.0046 -0.0104 -0.0138 -0.0218
0.0544 0.0326 0.0178 0.0134 0.0092 0.0516 0.027 0.0148
0.0132 0.0118 0.0404 0.0236 0.008 0.004 0.002 0.0032
-0.0184 -0.0334 -0.0352 -0.036 0.052 0.0192 -0.005 -0.0124
-0.0208 0.0508 0.0252 0.0118 0.0104 0.007 0.164 0.1364
0.1158 0.1134 0.1108 0.0646 0.0462 0.0326 0.0254 0.0222
-0.0062 -0.0578 -0.0754 -0.0796 -0.0848 0.0342 0.008 -0.0208
-0.0286 -0.0414 0.1004 0.061 0.0342 0.0276 0.0226 0.0774
0.0382 0.0148 0.012 0.0096 0.0596 0.0364 0.0136 0.007
0.007 0.0484 0.0268 0.0066 0.0072 0.007 0.0792 0.0326
0.0 -0.011 -0.0266 0.0548 0.0204 0.004 0.0012 -0.003
0.1968 0.1632 0.137 0.1334 0.1304 0.0776 0.0502 0.0346
0.0238 0.0198 0.0072 -0.06 -0.0808 -0.0854 -0.0932 0.0534
0.0256 -0.0246 -0.0364 -0.0516 0.1362 0.083 0.0494 0.0422
0.043 0.0526 0.0102 -0.0152 -0.0186 -0.0232 0.0528 0.0362
0.0098 0.0016 0.006 0.0374 0.0202 0.017 0.0176 0.0178
0.099 0.0372 -0.0064 -0.018 -0.0362 0.0566 0.0138 -0.0072
-0.0116 -0.0156 0.2238 0.1904 0.1556 0.1498 0.1438 0.0904
0.0474 0.0264 0.0118 0.0056 0.0044 -0.0692 -0.0932 -0.0992
-0.106 0.0618 0.0274 -0.0424 -0.0558 -0.072 0.167 0.1114
0.0688 0.0578 0.0636 0.0536 0.003 -0.029 -0.0346 -0.0396
0.0666 0.045 0.018 0.013 0.018 0.013 -0.001 -0.0034
-0.0048 -0.0006 0.1208 0.0466 -0.0088 -0.0192 -0.0368 0.06
00000000: 1361 c3d3 2b65 79bf 2d43 1ceb e236 8abf
00000010: 8f53 7424 97ff 90bf 3bdf 4f8d 976e 92bf
00000020: 014d 840d 4faf 94bf 92cb 7f48 bf7d 7d3f
00000030: 2f6e a301 bc05 623f 92cb 7f48 bf7d 5dbf
00000040: 6132 5530 2aa9 63bf c7ba b88d 06f0 66bf
00000050: 11c7 bab8 8d06 b03f 865a d3bc e314 ad3f
00000060: 1ceb e236 1ac0 ab3f 5396 218e 7571 ab3f
00000070: 107a 36ab 3e57 ab3f 55c1 a8a4 4e40 833f
00000080: 158c 4aea 0434 713f 6132 5530 2aa9 533f
00000090: 0000 0000 0000 0000 2d43 1ceb e236 4abf
000000a0: ed0d be30 992a 98bf d26f 5f07 ce19 a1bf
000000b0: e86a 2bf6 97dd a3bf f5db d781 7346 a4bf
000000c0: 014d 840d 4faf a4bf 7b14 ae47 e17a 84bf
000000d0: 158c 4aea 0434 91bf 94f6 065f 984c 95bf
000000e0: 4182 e2c7 98bb 96bf 8d28 ed0d be30 99bf
000000f0: 79e9 2631 08ac 8c3f c58f 3177 2d21 7f3f
00000100: fa7e 6abc 7493 683f 92cb 7f48 bf7d 5d3f
00000110: 2d43 1ceb e236 2a3f 5f07 ce19 51da ab3f
00000120: c7ba b88d 06f0 a63f 8885 5ad3 bce3 a43f
00000130: 38f8 c264 aa60 a43f 6ea3 01bc 0512 a43f
00000140: 2d43 1ceb e236 7a3f c7ba b88d 06f0 66bf
00000150: 92cb 7f48 bf7d 7dbf 3bdf 4f8d 976e 82bf
00000160: 6ea3 01bc 0512 84bf ba49 0c02 2b87 96bf
00000170: 7671 1b0d e02d a0bf 38f8 c264 aa60 a4bf
00000180: 0ebe 3099 2a18 a5bf 1b2f dd24 0681 a5bf
00000190: ff21 fdf6 75e0 9c3f fca9 f1d2 4d62 803f
000001a0: c7ba b88d 06f0 76bf 6132 5530 2aa9 83bf
000001b0: c58f 3177 2d21 8fbf 4bc8 073d 9b55 9f3f
000001c0: acad d85f 764f 8e3f c7ba b88d 06f0 763f
000001d0: fca9 f1d2 4d62 703f 94f6 065f 984c 653f
000001e0: 8e06 f016 4850 bc3f fa7e 6abc 7493 b83f
000001f0: 0612 143f c6dc b53f f9a0 67b3 ea73 b53f
00000200: 7368 91ed 7c3f b53f e483 9ecd aacf a53f
00000210: b98d 06f0 1648 a03f 4182 e2c7 98bb 963f
00000220: c217 2653 05a3 923f 7671 1b0d e02d 903f
00000230: 2d43 1ceb e236 8abf f1f4 4a59 8638 a6bf
00000240: f2b0 506b 9a77 acbf e258 17b7 d100 aebf
00000250: d200 de02 098a afbf 7446 94f6 065f 983f
00000260: 4850 fc18 73d7 723f 94f6 065f 984c 85bf
00000270: 6c78 7aa5 2c43 8cbf 3411 363c bd52 96bf
00000280: 5f07 ce19 51da ab3f c5fe b27b f2b0 a03f
00000290: b5a6 79c7 293a 923f 5396 218e 7571 8b3f
000002a0: 4850 fc18 73d7 823f b37b f2b0 506b aa3f
000002b0: d9ce f753 e3a5 9b3f acad d85f 764f 8e3f
000002c0: 4625 7502 9a08 8b3f ed0d be30 992a 883f
000002d0: 014d 840d 4faf a43f ed0d be30 992a 983f
000002e0: fca9 f1d2 4d62 803f fca9 f1d2 4d62 703f
000002f0: fca9 f1d2 4d62 603f 2d43 1ceb e236 6a3f
00000300: 4850 fc18 73d7 92bf d26f 5f07 ce19 a1bf
00000310: 2f6e a301 bc05 a2bf 3bdf 4f8d 976e a2bf
00000320: 39b4 c876 be9f aa3f 6132 5530 2aa9 933f
00000330: 7b14 ae47 e17a 74bf 1361 c3d3 2b65 89bf
00000340: 94f6 065f 984c 95bf a60a 4625 7502 aa3f
00000350: 20d2 6f5f 07ce 993f ed0d be30 992a 883f
00000360: 94f6 065f 984c 853f 79e9 2631 08ac 7c3f
00000370: cba1 45b6 f3fd c43f bd52 9621 8e75 c13f
00000380: f775 e09c 11a5 bd3f 64cc 5d4b c807 bd3f
00000390: af94 6588 635d bc3f 6154 5227 a089 b03f
000003a0: 9d80 26c2 86a7 a73f c5fe b27b f2b0 a03f
000003b0: a60a 4625 7502 9a3f 4182 e2c7 98bb 963f
000003c0: 1361 c3d3 2b65 79bf d5e7 6a2b f697 adbf
000003d0: 764f 1e16 6a4d b3bf 38f8 c264 aa60 b4bf
000003e0: a167 b3ea 73b5 b5bf dfe0 0b93 a982 a13f
000003f0: fca9 f1d2 4d62 803f 94f6 065f 984c 95bf
00000400: 0c93 a982 5149 9dbf 51da 1b7c 6132 a5bf
00000410: ddb5 847c d0b3 b93f 08ac 1c5a 643b af3f
00000420: dfe0 0b93 a982 a13f 6c78 7aa5 2c43 9c3f
00000430: 4df3 8e53 7424 973f c6dc b584 7cd0 b33f
00000440: 1e16 6a4d f38e a33f acad d85f 764f 8e3f
00000450: fa7e 6abc 7493 883f 6132 5530 2aa9 833f
00000460: 32e6 ae25 e483 ae3f c217 2653 05a3 a23f
00000470: 5f07 ce19 51da 8b3f 79e9 2631 08ac 7c3f
00000480: 79e9 2631 08ac 7c3f 80b7 4082 e2c7 a83f
00000490: 5396 218e 7571 9b3f 4625 7502 9a08 7b3f
000004a0: 92cb 7f48 bf7d 7d3f 79e9 2631 08ac 7c3f
000004b0: f5db d781 7346 b43f c5fe b27b f2b0 a03f
000004c0: 0000 0000 0000 0000 ba49 0c02 2b87 86bf
000004d0: cc5d 4bc8 073d 9bbf e63f a4df be0e ac3f
000004e0: 8885 5ad3 bce3 943f fca9 f1d2 4d62 703f
000004f0: 6132 5530 2aa9 533f fa7e 6abc 7493 68bf
00000500: 8d28 ed0d be30 c93f 8885 5ad3 bce3 c43f
00000510: f0a7 c64b 3789 c13f c1a8 a44e 4013 c13f
00000520: c5fe b27b f2b0 c03f e86a 2bf6 97dd b33f
00000530: ddb5 847c d0b3 a93f 6519 e258 17b7 a13f
00000540: 7446 94f6 065f 983f f5db d781 7346 943f
00000550: 92cb 7f48 bf7d 7d3f b81e 85eb 51b8 aebf
00000560: 014d 840d 4faf b4bf 0612 143f c6dc b5bf
00000570: 24b9 fc87 f4db b7bf 107a 36ab 3e57 ab3f
00000580: 2d43 1ceb e236 9a3f 8d28 ed0d be30 99bf
00000590: c217 2653 05a3 a2bf b37b f2b0 506b aabf
000005a0: ac8b db68 006f c13f 7368 91ed 7c3f b53f
000005b0: d044 d8f0 f44a a93f 5e4b c807 3d9b a53f
000005c0: 6abc 7493 1804 a63f 0309 8a1f 63ee aa3f
000005d0: 8885 5ad3 bce3 843f c58f 3177 2d21 8fbf
000005e0: ce88 d2de e00b 93bf e09c 11a5 bdc1 97bf
000005f0: 4625 7502 9a08 ab3f 7ffb 3a70 ce88 a23f
00000600: 6ea3 01bc 0512 843f 2d43 1ceb e236 5a3f
00000610: fa7e 6abc 7493 783f 12a5 bdc1 1726 a33f
00000620: 014d 840d 4faf 943f 9cc4 20b0 7268 913f
00000630: 2f6e a301 bc05 923f b5a6 79c7 293a 923f
00000640: f2d2 4d62 1058 b93f ce88 d2de e00b a33f
00000650: 2d43 1ceb e236 7abf 3bdf 4f8d 976e 92bf
00000660: 7ffb 3a70 ce88 a2bf 423e e8d9 acfa ac3f
00000670: 6c78 7aa5 2c43 8c3f 92cb 7f48 bf7d 7dbf
00000680: e09c 11a5 bdc1 87bf de71 8a8e e4f2 8fbf
00000690: 6822 6c78 7aa5 cc3f 7446 94f6 065f c83f
000006a0: 09f9 a067 b3ea c33f 226c 787a a52c c33f
000006b0: 2b18 95d4 0968 c23f 4df3 8e53 7424 b73f
000006c0: 302a a913 d044 a83f 4625 7502 9a08 9b3f
000006d0: ed0d be30 992a 883f c7ba b88d 06f0 763f
000006e0: 2f6e a301 bc05 723f 6519 e258 17b7 b1bf
000006f0: 24b9 fc87 f4db b7bf 1361 c3d3 2b65 b9bf
00000700: 8941 60e5 d022 bbbf 151d c9e5 3fa4 af3f
00000710: e63f a4df be0e 9c3f a167 b3ea 73b5 a5bf
00000720: 36cd 3b4e d191 acbf 3bdf 4f8d 976e b2bf
00000730: c74b 3789 4160 c53f 143f c6dc b584 bc3f
00000740: 22fd f675 e09c b13f d5e7 6a2b f697 ad3f
00000750: b98d 06f0 1648 b03f 5396 218e 7571 ab3f
00000760: fa7e 6abc 7493 683f 1904 560e 2db2 9dbf
00000770: 6519 e258 17b7 a1bf f5db d781 7346 a4bf
00000780: b1e1 e995 b20c b13f 0ad7 a370 3d0a a73f
00000790: 3bdf 4f8d 976e 923f 39b4 c876 be9f 8a3f
000007a0: 3bdf 4f8d 976e 923f 39b4 c876 be9f 8a3f
000007b0: fca9 f1d2 4d62 50bf 5f07 ce19 51da 6bbf
000007c0: 6132 5530 2aa9 73bf 6132 5530 2aa9 43bf
000007d0: 3f57 5bb1 bfec be3f 24b9 fc87 f4db a73f
000007e0: 2f6e a301 bc05 82bf 6132 5530 2aa9 93bf
000007f0: 4850 fc18 73d7 a2bf b81e 85eb 51b8 ae3f
