ising_output/magnetization_b_20000.npy (npy, 800128 bytes, 1 tensors)

array f8 [5, 20000]
0	0xc062800000000000	-148.0
1	0x405b000000000000	108.0
2	0x4063c00000000000	158.0
3	0xc065800000000000	-172.0
4	0xc071a00000000000	-282.0
5	0xc06c000000000000	-224.0
6	0x4041000000000000	34.0
7	0x4028000000000000	12.0
8	0x4046000000000000	44.0
9	0x4055800000000000	86.0
10	0x4060c00000000000	134.0
11	0xc056000000000000	-88.0
12	0xc07a200000000000	-418.0
13	0xc069c00000000000	-206.0
14	0x406cc00000000000	230.0
15	0x4054800000000000	82.0
16	0xc05c000000000000	-112.0
17	0xc070e00000000000	-270.0
18	0xc050800000000000	-66.0
19	0x4059000000000000	100.0
20	0x4062000000000000	144.0
21	0x4051000000000000	68.0
22	0xc062400000000000	-146.0
23	0xc05d800000000000	-118.0
24	0x405d000000000000	116.0
25	0x4066400000000000	178.0
26	0x4051800000000000	70.0
27	0x4055000000000000	84.0
28	0x4059800000000000	102.0
29	0x4070200000000000	258.0
30	0x4070c00000000000	268.0
31	0x405e800000000000	122.0
32	0xc02c000000000000	-14.0
33	0x4044000000000000	40.0
34	0x4064c00000000000	166.0
35	0x4066000000000000	176.0
36	0xc055800000000000	-86.0
37	0xc056800000000000	-90.0
38	0x4000000000000000	2.0
39	0x403e000000000000	30.0
40	0x4045000000000000	42.0
41	0x4076e00000000000	366.0
42	0x4070400000000000	260.0
43	0xc06c800000000000	-228.0
44	0xc068400000000000	-194.0
45	0x4052000000000000	72.0
46	0x4074600000000000	326.0
47	0xc04a000000000000	-52.0
48	0xc048000000000000	-48.0
49	0x4070a00000000000	266.0
50	0x4057800000000000	94.0
51	0xc070200000000000	-258.0
52	0xc064400000000000	-162.0
53	0xc054000000000000	-80.0
54	0x4062800000000000	148.0
55	0x4061000000000000	136.0
56	0x4057000000000000	92.0
57	0x4068000000000000	192.0
58	0x406b800000000000	220.0
59	0xc063000000000000	-152.0
60	0xc06cc00000000000	-230.0
61	0x4053000000000000	76.0
62	0x4066000000000000	176.0
63	0x0000000000000000	0.0
64	0x402c000000000000	14.0
65	0xc040000000000000	-32.0
66	0xc072400000000000	-292.0
67	0x4067c00000000000	190.0
68	0x406f000000000000	248.0
69	0x4062800000000000	148.0
70	0x4057800000000000	94.0
71	0x4030000000000000	16.0
72	0x4065c00000000000	174.0
73	0x4066c00000000000	182.0
74	0xc05a800000000000	-106.0
75	0x4056000000000000	88.0
76	0x4061800000000000	140.0
77	0xc020000000000000	-8.0
78	0x4059000000000000	100.0
79	0x4056800000000000	90.0
80	0x4010000000000000	4.0
81	0x404d000000000000	58.0
82	0x4061400000000000	138.0
83	0xc061400000000000	-138.0
84	0xc07b800000000000	-440.0
85	0xc05a000000000000	-104.0
86	0x4067c00000000000	190.0
87	0x4028000000000000	12.0
88	0x4041000000000000	34.0
89	0x403e000000000000	30.0
90	0xc05e800000000000	-122.0
91	0xc06e800000000000	-244.0
92	0x4044000000000000	40.0
93	0x406f800000000000	252.0
94	0x4042000000000000	36.0
95	0xc056800000000000	-90.0
96	0xc030000000000000	-16.0
97	0xc053000000000000	-76.0
98	0xc070600000000000	-262.0
99	0xc020000000000000	-8.0
100	0x406d800000000000	236.0
101	0x405c800000000000	114.0
102	0x4063800000000000	156.0
103	0x407ac00000000000	428.0
104	0x4057000000000000	92.0
105	0xc06b000000000000	-216.0
106	0xc05c800000000000	-114.0
107	0xc05f800000000000	-126.0
108	0xc074800000000000	-328.0
109	0xc05e000000000000	-120.0
110	0xc068400000000000	-194.0
111	0xc053800000000000	-78.0
112	0x403c000000000000	28.0
113	0xc046000000000000	-44.0
114	0xc069800000000000	-204.0
115	0x4050800000000000	66.0
116	0x4043000000000000	38.0
117	0xc06e800000000000	-244.0
118	0xc06fc00000000000	-254.0
119	0xc05b800000000000	-110.0
120	0x4067400000000000	186.0
121	0x404d000000000000	58.0
122	0xc052800000000000	-74.0
123	0x4062c00000000000	150.0
124	0x4062400000000000	146.0
125	0xc075400000000000	-340.0
126	0xc06cc00000000000	-230.0
127	0xc028000000000000	-12.0
128	0x406d400000000000	234.0
129	0xc065000000000000	-168.0
130	0xc020000000000000	-8.0
131	0x402c000000000000	14.0
132	0xc056000000000000	-88.0
133	0x4073800000000000	312.0
134	0xc020000000000000	-8.0
135	0xc07a200000000000	-418.0
136	0xc067800000000000	-188.0
137	0x4072c00000000000	300.0
138	0x4036000000000000	22.0
139	0xc07a800000000000	-424.0
140	0xc066800000000000	-180.0
141	0xc050800000000000	-66.0
142	0xc000000000000000	-2.0
143	0x406f000000000000	248.0
144	0xc048000000000000	-48.0
145	0xc045000000000000	-42.0
146	0x4060800000000000	132.0
147	0x4068400000000000	194.0
148	0xc048000000000000	-48.0
149	0xc076c00000000000	-364.0
150	0x4054800000000000	82.0
151	0x4057000000000000	92.0
152	0xc074200000000000	-322.0
153	0xc04b000000000000	-54.0
154	0x4064c00000000000	166.0
155	0x4020000000000000	8.0
156	0x4049000000000000	50.0
157	0x406f800000000000	252.0
158	0x405d000000000000	116.0
159	0x4049000000000000	50.0
160	0xc060c00000000000	-134.0
161	0x4051000000000000	68.0
162	0xc04c000000000000	-56.0
163	0xc06d400000000000	-234.0
164	0xc055800000000000	-86.0
165	0x405c800000000000	114.0
166	0xc040000000000000	-32.0
167	0x4040000000000000	32.0
168	0x406c000000000000	224.0
169	0x4020000000000000	8.0
170	0xc050800000000000	-66.0
171	0xc065400000000000	-170.0
172	0x4052800000000000	74.0
173	0x4055000000000000	84.0
174	0x4058000000000000	96.0
175	0xc028000000000000	-12.0
176	0x4036000000000000	22.0
177	0xc070600000000000	-262.0
178	0xc071600000000000	-278.0
179	0x4028000000000000	12.0
180	0x404f000000000000	62.0
181	0xc060800000000000	-132.0
182	0xc057800000000000	-94.0
183	0x4055000000000000	84.0
184	0xc04f000000000000	-62.0
185	0xc054000000000000	-80.0
186	0x4043000000000000	38.0
187	0x4063400000000000	154.0
188	0xc040000000000000	-32.0
189	0x405a800000000000	106.0
190	0xc048000000000000	-48.0
191	0x404f000000000000	62.0
192	0xc05a000000000000	-104.0
193	0xc05f000000000000	-124.0
194	0x4056000000000000	88.0
195	0x4078200000000000	386.0
196	0x406e400000000000	242.0
197	0x4060800000000000	132.0
198	0x4060400000000000	130.0
199	0xc058000000000000	-96.0
200	0xc065c00000000000	-174.0
201	0xc053800000000000	-78.0
202	0x4053000000000000	76.0
203	0xc069c00000000000	-206.0
204	0xc055000000000000	-84.0
205	0xc04a000000000000	-52.0
206	0x405d000000000000	116.0
207	0x4060400000000000	130.0
208	0x4053800000000000	78.0
209	0xc070c00000000000	-268.0
210	0xc051000000000000	-68.0
211	0x406d400000000000	234.0
212	0x4028000000000000	12.0
213	0xc07a600000000000	-422.0
214	0xc071400000000000	-276.0
215	0x4055800000000000	86.0
216	0x4076800000000000	360.0
217	0x4018000000000000	6.0
218	0xc07f600000000000	-502.0
219	0xc06f000000000000	-248.0
220	0x406fc00000000000	254.0
221	0x406c000000000000	224.0
222	0xc05e800000000000	-122.0
223	0xc079400000000000	-404.0
224	0x4047000000000000	46.0
225	0x4061800000000000	140.0
226	0xc068800000000000	-196.0
227	0xc05b000000000000	-108.0
228	0x4072200000000000	290.0
229	0x405b000000000000	108.0
230	0xc05b000000000000	-108.0
231	0x4076e00000000000	366.0
232	0x4049000000000000	50.0
233	0xc07d200000000000	-466.0
234	0xc073000000000000	-304.0
235	0x4051000000000000	68.0
236	0x4068000000000000	192.0
237	0x4060400000000000	130.0
238	0xc034000000000000	-20.0
239	0xc05e800000000000	-122.0
240	0x4072200000000000	290.0
241	0x4072000000000000	288.0
242	0xc053000000000000	-76.0
243	0xc020000000000000	-8.0
244	0x4061c00000000000	142.0
245	0xc049000000000000	-50.0
246	0xc06e000000000000	-240.0
247	0xc041000000000000	-34.0
248	0x4028000000000000	12.0
249	0x4057800000000000	94.0
250	0x4058800000000000	98.0
251	0x4067800000000000	188.0
252	0xc067000000000000	-184.0
253	0xc04e000000000000	-60.0
254	0x406c800000000000	228.0
255	0x4071400000000000	276.0
